__________________________________________________________________________________________________
Layer (type)                    Output Shape         Param #     Connected to                     
==================================================================================================
input_1 (InputLayer)            (None, 4, 4, 17)     0                                            
__________________________________________________________________________________________________
conv2d_1 (Conv2D)               (None, 4, 4, 128)    8832        input_1[0][0]                    
__________________________________________________________________________________________________
conv2d_2 (Conv2D)               (None, 4, 4, 128)    8832        input_1[0][0]                    
__________________________________________________________________________________________________
conv2d_3 (Conv2D)               (None, 4, 4, 128)    8832        input_1[0][0]                    
__________________________________________________________________________________________________
conv2d_4 (Conv2D)               (None, 4, 4, 128)    19712       input_1[0][0]                    
__________________________________________________________________________________________________
conv2d_5 (Conv2D)               (None, 4, 4, 128)    34944       input_1[0][0]                    
__________________________________________________________________________________________________
add_1 (Add)                     (None, 4, 4, 128)    0           conv2d_1[0][0]                   
                                                                 conv2d_2[0][0]                   
                                                                 conv2d_3[0][0]                   
                                                                 conv2d_4[0][0]                   
                                                                 conv2d_5[0][0]                   
__________________________________________________________________________________________________
batch_normalization_1 (BatchNor (None, 4, 4, 128)    512         add_1[0][0]                      
__________________________________________________________________________________________________
leaky_re_lu_1 (LeakyReLU)       (None, 4, 4, 128)    0           batch_normalization_1[0][0]      
__________________________________________________________________________________________________
flatten_1 (Flatten)             (None, 2048)         0           leaky_re_lu_1[0][0]              
__________________________________________________________________________________________________
dense_1 (Dense)                 (None, 512)          1049088     flatten_1[0][0]                  
__________________________________________________________________________________________________
batch_normalization_2 (BatchNor (None, 512)          2048        dense_1[0][0]                    
__________________________________________________________________________________________________
leaky_re_lu_2 (LeakyReLU)       (None, 512)          0           batch_normalization_2[0][0]      
__________________________________________________________________________________________________
dense_2 (Dense)                 (None, 128)          65664       leaky_re_lu_2[0][0]              
__________________________________________________________________________________________________
batch_normalization_3 (BatchNor (None, 128)          512         dense_2[0][0]                    
__________________________________________________________________________________________________
leaky_re_lu_3 (LeakyReLU)       (None, 128)          0           batch_normalization_3[0][0]      
__________________________________________________________________________________________________
dense_3 (Dense)                 (None, 4)            516         leaky_re_lu_3[0][0]              
==================================================================================================
Total params: 1,199,492
Trainable params: 1,197,956
Non-trainable params: 1,536
__________________________________________________________________________________________________
__________________________________________________________________________________________________
Layer (type)                    Output Shape         Param #     Connected to                     
==================================================================================================
input_2 (InputLayer)            (None, 4, 4, 17)     0                                            
__________________________________________________________________________________________________
conv2d_6 (Conv2D)               (None, 4, 4, 128)    8832        input_2[0][0]                    
__________________________________________________________________________________________________
conv2d_7 (Conv2D)               (None, 4, 4, 128)    8832        input_2[0][0]                    
__________________________________________________________________________________________________
conv2d_8 (Conv2D)               (None, 4, 4, 128)    8832        input_2[0][0]                    
__________________________________________________________________________________________________
conv2d_9 (Conv2D)               (None, 4, 4, 128)    19712       input_2[0][0]                    
__________________________________________________________________________________________________
conv2d_10 (Conv2D)              (None, 4, 4, 128)    34944       input_2[0][0]                    
__________________________________________________________________________________________________
add_2 (Add)                     (None, 4, 4, 128)    0           conv2d_6[0][0]                   
                                                                 conv2d_7[0][0]                   
                                                                 conv2d_8[0][0]                   
                                                                 conv2d_9[0][0]                   
                                                                 conv2d_10[0][0]                  
__________________________________________________________________________________________________
batch_normalization_4 (BatchNor (None, 4, 4, 128)    512         add_2[0][0]                      
__________________________________________________________________________________________________
leaky_re_lu_4 (LeakyReLU)       (None, 4, 4, 128)    0           batch_normalization_4[0][0]      
__________________________________________________________________________________________________
flatten_2 (Flatten)             (None, 2048)         0           leaky_re_lu_4[0][0]              
__________________________________________________________________________________________________
dense_4 (Dense)                 (None, 512)          1049088     flatten_2[0][0]                  
__________________________________________________________________________________________________
batch_normalization_5 (BatchNor (None, 512)          2048        dense_4[0][0]                    
__________________________________________________________________________________________________
leaky_re_lu_5 (LeakyReLU)       (None, 512)          0           batch_normalization_5[0][0]      
__________________________________________________________________________________________________
dense_5 (Dense)                 (None, 128)          65664       leaky_re_lu_5[0][0]              
__________________________________________________________________________________________________
batch_normalization_6 (BatchNor (None, 128)          512         dense_5[0][0]                    
__________________________________________________________________________________________________
leaky_re_lu_6 (LeakyReLU)       (None, 128)          0           batch_normalization_6[0][0]      
__________________________________________________________________________________________________
dense_6 (Dense)                 (None, 4)            516         leaky_re_lu_6[0][0]              
==================================================================================================
Total params: 1,199,492
Trainable params: 1,197,956
Non-trainable params: 1,536
__________________________________________________________________________________________________
__________________________________________________________________________________________________
Layer (type)                    Output Shape         Param #     Connected to                     
==================================================================================================
input_3 (InputLayer)            (None, 4, 4, 17)     0                                            
__________________________________________________________________________________________________
conv2d_11 (Conv2D)              (None, 4, 4, 128)    8832        input_3[0][0]                    
__________________________________________________________________________________________________
conv2d_12 (Conv2D)              (None, 4, 4, 128)    8832        input_3[0][0]                    
__________________________________________________________________________________________________
conv2d_13 (Conv2D)              (None, 4, 4, 128)    8832        input_3[0][0]                    
__________________________________________________________________________________________________
conv2d_14 (Conv2D)              (None, 4, 4, 128)    19712       input_3[0][0]                    
__________________________________________________________________________________________________
conv2d_15 (Conv2D)              (None, 4, 4, 128)    34944       input_3[0][0]                    
__________________________________________________________________________________________________
add_3 (Add)                     (None, 4, 4, 128)    0           conv2d_11[0][0]                  
                                                                 conv2d_12[0][0]                  
                                                                 conv2d_13[0][0]                  
                                                                 conv2d_14[0][0]                  
                                                                 conv2d_15[0][0]                  
__________________________________________________________________________________________________
batch_normalization_7 (BatchNor (None, 4, 4, 128)    512         add_3[0][0]                      
__________________________________________________________________________________________________
leaky_re_lu_7 (LeakyReLU)       (None, 4, 4, 128)    0           batch_normalization_7[0][0]      
__________________________________________________________________________________________________
flatten_3 (Flatten)             (None, 2048)         0           leaky_re_lu_7[0][0]              
__________________________________________________________________________________________________
dense_7 (Dense)                 (None, 512)          1049088     flatten_3[0][0]                  
__________________________________________________________________________________________________
batch_normalization_8 (BatchNor (None, 512)          2048        dense_7[0][0]                    
__________________________________________________________________________________________________
leaky_re_lu_8 (LeakyReLU)       (None, 512)          0           batch_normalization_8[0][0]      
__________________________________________________________________________________________________
dense_8 (Dense)                 (None, 128)          65664       leaky_re_lu_8[0][0]              
__________________________________________________________________________________________________
batch_normalization_9 (BatchNor (None, 128)          512         dense_8[0][0]                    
__________________________________________________________________________________________________
leaky_re_lu_9 (LeakyReLU)       (None, 128)          0           batch_normalization_9[0][0]      
__________________________________________________________________________________________________
dense_9 (Dense)                 (None, 4)            516         leaky_re_lu_9[0][0]              
==================================================================================================
Total params: 1,199,492
Trainable params: 1,197,956
Non-trainable params: 1,536
__________________________________________________________________________________________________
__________________________________________________________________________________________________
Layer (type)                    Output Shape         Param #     Connected to                     
==================================================================================================
input_4 (InputLayer)            (None, 4, 4, 17)     0                                            
__________________________________________________________________________________________________
conv2d_16 (Conv2D)              (None, 4, 4, 128)    8832        input_4[0][0]                    
__________________________________________________________________________________________________
conv2d_17 (Conv2D)              (None, 4, 4, 128)    8832        input_4[0][0]                    
__________________________________________________________________________________________________
conv2d_18 (Conv2D)              (None, 4, 4, 128)    8832        input_4[0][0]                    
__________________________________________________________________________________________________
conv2d_19 (Conv2D)              (None, 4, 4, 128)    19712       input_4[0][0]                    
__________________________________________________________________________________________________
conv2d_20 (Conv2D)              (None, 4, 4, 128)    34944       input_4[0][0]                    
__________________________________________________________________________________________________
add_4 (Add)                     (None, 4, 4, 128)    0           conv2d_16[0][0]                  
                                                                 conv2d_17[0][0]                  
                                                                 conv2d_18[0][0]                  
                                                                 conv2d_19[0][0]                  
                                                                 conv2d_20[0][0]                  
__________________________________________________________________________________________________
batch_normalization_10 (BatchNo (None, 4, 4, 128)    512         add_4[0][0]                      
__________________________________________________________________________________________________
leaky_re_lu_10 (LeakyReLU)      (None, 4, 4, 128)    0           batch_normalization_10[0][0]     
__________________________________________________________________________________________________
flatten_4 (Flatten)             (None, 2048)         0           leaky_re_lu_10[0][0]             
__________________________________________________________________________________________________
dense_10 (Dense)                (None, 512)          1049088     flatten_4[0][0]                  
__________________________________________________________________________________________________
batch_normalization_11 (BatchNo (None, 512)          2048        dense_10[0][0]                   
__________________________________________________________________________________________________
leaky_re_lu_11 (LeakyReLU)      (None, 512)          0           batch_normalization_11[0][0]     
__________________________________________________________________________________________________
dense_11 (Dense)                (None, 128)          65664       leaky_re_lu_11[0][0]             
__________________________________________________________________________________________________
batch_normalization_12 (BatchNo (None, 128)          512         dense_11[0][0]                   
__________________________________________________________________________________________________
leaky_re_lu_12 (LeakyReLU)      (None, 128)          0           batch_normalization_12[0][0]     
__________________________________________________________________________________________________
dense_12 (Dense)                (None, 4)            516         leaky_re_lu_12[0][0]             
==================================================================================================
Total params: 1,199,492
Trainable params: 1,197,956
Non-trainable params: 1,536
__________________________________________________________________________________________________
Iter: 1
======Direction: up======
Iter: 2
======Direction: down======
…
