__________________________________________________________________________________________________
Layer (type)                    Output Shape         Param #     Connected to                     
==================================================================================================
input_1 (InputLayer)            (None, 4, 4, 17)     0                                            
__________________________________________________________________________________________________
conv2d_1 (Conv2D)               (None, 4, 4, 128)    8832        input_1[0][0]                    
__________________________________________________________________________________________________
conv2d_2 (Conv2D)               (None, 4, 4, 128)    8832        input_1[0][0]                    
__________________________________________________________________________________________________
conv2d_3 (Conv2D)               (None, 4, 4, 128)    8832        input_1[0][0]                    
__________________________________________________________________________________________________
conv2d_4 (Conv2D)               (None, 4, 4, 128)    19712       input_1[0][0]                    
__________________________________________________________________________________________________
conv2d_5 (Conv2D)               (None, 4, 4, 128)    34944       input_1[0][0]                    
__________________________________________________________________________________________________
add_1 (Add)                     (None, 4, 4, 128)    0           conv2d_1[0][0]                   
                                                                 conv2d_2[0][0]                   
                                                                 conv2d_3[0][0]                   
                                                                 conv2d_4[0][0]                   
                                                                 conv2d_5[0][0]                   
__________________________________________________________________________________________________
batch_normalization_1 (BatchNor (None, 4, 4, 128)    512         add_1[0][0]                      
__________________________________________________________________________________________________
leaky_re_lu_1 (LeakyReLU)       (None, 4, 4, 128)    0           batch_normalization_1[0][0]      
__________________________________________________________________________________________________
flatten_1 (Flatten)             (None, 2048)         0           leaky_re_lu_1[0][0]              
__________________________________________________________________________________________________
dense_1 (Dense)                 (None, 512)          1049088     flatten_1[0][0]                  
__________________________________________________________________________________________________
batch_normalization_2 (BatchNor (None, 512)          2048        dense_1[0][0]                    
__________________________________________________________________________________________________
leaky_re_lu_2 (LeakyReLU)       (None, 512)          0           batch_normalization_2[0][0]      
__________________________________________________________________________________________________
dense_2 (Dense)                 (None, 128)          65664       leaky_re_lu_2[0][0]              
__________________________________________________________________________________________________
batch_normalization_3 (BatchNor (None, 128)          512         dense_2[0][0]                    
__________________________________________________________________________________________________
leaky_re_lu_3 (LeakyReLU)       (None, 128)          0           batch_normalization_3[0][0]      
__________________________________________________________________________________________________
dense_3 (Dense)                 (None, 4)            516         leaky_re_lu_3[0][0]              
==================================================================================================
Total params: 1,199,492
Trainable params: 1,197,956
Non-trainable params: 1,536
__________________________________________________________________________________________________
__________________________________________________________________________________________________
Layer (type)                    Output Shape         Param #     Connected to                     
==================================================================================================
input_2 (InputLayer)            (None, 4, 4, 17)     0                                            
__________________________________________________________________________________________________
conv2d_6 (Conv2D)               (None, 4, 4, 128)    8832        input_2[0][0]                    
__________________________________________________________________________________________________
conv2d_7 (Conv2D)               (None, 4, 4, 128)    8832        input_2[0][0]                    
__________________________________________________________________________________________________
conv2d_8 (Conv2D)               (None, 4, 4, 128)    8832        input_2[0][0]                    
__________________________________________________________________________________________________
conv2d_9 (Conv2D)               (None, 4, 4, 128)    19712       input_2[0][0]                    
__________________________________________________________________________________________________
conv2d_10 (Conv2D)              (None, 4, 4, 128)    34944       input_2[0][0]                    
__________________________________________________________________________________________________
add_2 (Add)                     (None, 4, 4, 128)    0           conv2d_6[0][0]                   
                                                                 conv2d_7[0][0]                   
                                                                 conv2d_8[0][0]                   
                                                                 conv2d_9[0][0]                   
                                                                 conv2d_10[0][0]                  
__________________________________________________________________________________________________
batch_normalization_4 (BatchNor (None, 4, 4, 128)    512         add_2[0][0]                      
__________________________________________________________________________________________________
leaky_re_lu_4 (LeakyReLU)       (None, 4, 4, 128)    0           batch_normalization_4[0][0]      
__________________________________________________________________________________________________
flatten_2 (Flatten)             (None, 2048)         0           leaky_re_lu_4[0][0]              
__________________________________________________________________________________________________
dense_4 (Dense)                 (None, 512)          1049088     flatten_2[0][0]                  
__________________________________________________________________________________________________
batch_normalization_5 (BatchNor (None, 512)          2048        dense_4[0][0]                    
__________________________________________________________________________________________________
leaky_re_lu_5 (LeakyReLU)       (None, 512)          0           batch_normalization_5[0][0]      
__________________________________________________________________________________________________
dense_5 (Dense)                 (None, 128)          65664       leaky_re_lu_5[0][0]              
__________________________________________________________________________________________________
batch_normalization_6 (BatchNor (None, 128)          512         dense_5[0][0]                    
__________________________________________________________________________________________________
leaky_re_lu_6 (LeakyReLU)       (None, 128)          0           batch_normalization_6[0][0]      
__________________________________________________________________________________________________
dense_6 (Dense)                 (None, 4)            516         leaky_re_lu_6[0][0]              
==================================================================================================
Total params: 1,199,492
Trainable params: 1,197,956
Non-trainable params: 1,536
__________________________________________________________________________________________________
__________________________________________________________________________________________________
Layer (type)                    Output Shape         Param #     Connected to                     
==================================================================================================
input_3 (InputLayer)            (None, 4, 4, 17)     0                                            
__________________________________________________________________________________________________
conv2d_11 (Conv2D)              (None, 4, 4, 128)    8832        input_3[0][0]                    
__________________________________________________________________________________________________
conv2d_12 (Conv2D)              (None, 4, 4, 128)    8832        input_3[0][0]                    
__________________________________________________________________________________________________
conv2d_13 (Conv2D)              (None, 4, 4, 128)    8832        input_3[0][0]                    
__________________________________________________________________________________________________
conv2d_14 (Conv2D)              (None, 4, 4, 128)    19712       input_3[0][0]                    
__________________________________________________________________________________________________
conv2d_15 (Conv2D)              (None, 4, 4, 128)    34944       input_3[0][0]                    
__________________________________________________________________________________________________
add_3 (Add)                     (None, 4, 4, 128)    0           conv2d_11[0][0]                  
                                                                 conv2d_12[0][0]                  
                                                                 conv2d_13[0][0]                  
                                                                 conv2d_14[0][0]                  
                                                                 conv2d_15[0][0]                  
__________________________________________________________________________________________________
batch_normalization_7 (BatchNor (None, 4, 4, 128)    512         add_3[0][0]                      
__________________________________________________________________________________________________
leaky_re_lu_7 (LeakyReLU)       (None, 4, 4, 128)    0           batch_normalization_7[0][0]      
__________________________________________________________________________________________________
flatten_3 (Flatten)             (None, 2048)         0           leaky_re_lu_7[0][0]              
__________________________________________________________________________________________________
dense_7 (Dense)                 (None, 512)          1049088     flatten_3[0][0]                  
__________________________________________________________________________________________________
batch_normalization_8 (BatchNor (None, 512)          2048        dense_7[0][0]                    
__________________________________________________________________________________________________
leaky_re_lu_8 (LeakyReLU)       (None, 512)          0           batch_normalization_8[0][0]      
__________________________________________________________________________________________________
dense_8 (Dense)                 (None, 128)          65664       leaky_re_lu_8[0][0]              
__________________________________________________________________________________________________
batch_normalization_9 (BatchNor (None, 128)          512         dense_8[0][0]                    
__________________________________________________________________________________________________
leaky_re_lu_9 (LeakyReLU)       (None, 128)          0           batch_normalization_9[0][0]      
__________________________________________________________________________________________________
dense_9 (Dense)                 (None, 4)            516         leaky_re_lu_9[0][0]              
==================================================================================================
Total params: 1,199,492
Trainable params: 1,197,956
Non-trainable params: 1,536
__________________________________________________________________________________________________
__________________________________________________________________________________________________
Layer (type)                    Output Shape         Param #     Connected to                     
==================================================================================================
input_4 (InputLayer)            (None, 4, 4, 17)     0                                            
__________________________________________________________________________________________________
conv2d_16 (Conv2D)              (None, 4, 4, 128)    8832        input_4[0][0]                    
__________________________________________________________________________________________________
conv2d_17 (Conv2D)              (None, 4, 4, 128)    8832        input_4[0][0]                    
__________________________________________________________________________________________________
conv2d_18 (Conv2D)              (None, 4, 4, 128)    8832        input_4[0][0]                    
__________________________________________________________________________________________________
conv2d_19 (Conv2D)              (None, 4, 4, 128)    19712       input_4[0][0]                    
__________________________________________________________________________________________________
conv2d_20 (Conv2D)              (None, 4, 4, 128)    34944       input_4[0][0]                    
__________________________________________________________________________________________________
add_4 (Add)                     (None, 4, 4, 128)    0           conv2d_16[0][0]                  
                                                                 conv2d_17[0][0]                  
                                                                 conv2d_18[0][0]                  
                                                                 conv2d_19[0][0]                  
                                                                 conv2d_20[0][0]                  
__________________________________________________________________________________________________
batch_normalization_10 (BatchNo (None, 4, 4, 128)    512         add_4[0][0]                      
__________________________________________________________________________________________________
leaky_re_lu_10 (LeakyReLU)      (None, 4, 4, 128)    0           batch_normalization_10[0][0]     
__________________________________________________________________________________________________
flatten_4 (Flatten)             (None, 2048)         0           leaky_re_lu_10[0][0]             
__________________________________________________________________________________________________
dense_10 (Dense)                (None, 512)          1049088     flatten_4[0][0]                  
__________________________________________________________________________________________________
batch_normalization_11 (BatchNo (None, 512)          2048        dense_10[0][0]                   
__________________________________________________________________________________________________
leaky_re_lu_11 (LeakyReLU)      (None, 512)          0           batch_normalization_11[0][0]     
__________________________________________________________________________________________________
dense_11 (Dense)                (None, 128)          65664       leaky_re_lu_11[0][0]             
__________________________________________________________________________________________________
batch_normalization_12 (BatchNo (None, 128)          512         dense_11[0][0]                   
__________________________________________________________________________________________________
leaky_re_lu_12 (LeakyReLU)      (None, 128)          0           batch_normalization_12[0][0]     
__________________________________________________________________________________________________
dense_12 (Dense)                (None, 4)            516         leaky_re_lu_12[0][0]             
==================================================================================================
Total params: 1,199,492
Trainable params: 1,197,956
Non-trainable params: 1,536
__________________________________________________________________________________________________
Iter: 1
======Direction: up======
Iter: 2
======Direction: down======
…
======Direction: down======
Iter: 59
======Direction: right======
Iter: 60
======Direction: right======
Iter: 61
======Direction: right======
Iter: 62
======Direction: right======
Iter: 63
======Direction: right======
Iter: 64
======Direction: right======
__________________________________________________________________________________________________
Layer (type)                    Output Shape         Param #     Connected to                     
==================================================================================================
input_25 (InputLayer)           (None, 4, 4, 17)     0                                            
__________________________________________________________________________________________________
conv2d_121 (Conv2D)             (None, 4, 4, 128)    8832        input_25[0][0]                   
__________________________________________________________________________________________________
conv2d_122 (Conv2D)             (None, 4, 4, 128)    8832        input_25[0][0]                   
__________________________________________________________________________________________________
conv2d_123 (Conv2D)             (None, 4, 4, 128)    8832        input_25[0][0]                   
__________________________________________________________________________________________________
conv2d_124 (Conv2D)             (None, 4, 4, 128)    19712       input_25[0][0]                   
__________________________________________________________________________________________________
conv2d_125 (Conv2D)             (None, 4, 4, 128)    34944       input_25[0][0]                   
__________________________________________________________________________________________________
add_25 (Add)                    (None, 4, 4, 128)    0           conv2d_121[0][0]                 
                                                                 conv2d_122[0][0]                 
                                                                 conv2d_123[0][0]                 
                                                                 conv2d_124[0][0]                 
                                                                 conv2d_125[0][0]                 
__________________________________________________________________________________________________
batch_normalization_73 (BatchNo (None, 4, 4, 128)    512         add_25[0][0]                     
__________________________________________________________________________________________________
leaky_re_lu_73 (LeakyReLU)      (None, 4, 4, 128)    0           batch_normalization_73[0][0]     
__________________________________________________________________________________________________
flatten_25 (Flatten)            (None, 2048)         0           leaky_re_lu_73[0][0]             
__________________________________________________________________________________________________
dense_73 (Dense)                (None, 512)          1049088     flatten_25[0][0]                 
__________________________________________________________________________________________________
batch_normalization_74 (BatchNo (None, 512)          2048        dense_73[0][0]                   
__________________________________________________________________________________________________
leaky_re_lu_74 (LeakyReLU)      (None, 512)          0           batch_normalization_74[0][0]     
__________________________________________________________________________________________________
dense_74 (Dense)                (None, 128)          65664       leaky_re_lu_74[0][0]             
__________________________________________________________________________________________________
batch_normalization_75 (BatchNo (None, 128)          512         dense_74[0][0]                   
__________________________________________________________________________________________________
leaky_re_lu_75 (LeakyReLU)      (None, 128)          0           batch_normalization_75[0][0]     
__________________________________________________________________________________________________
dense_75 (Dense)                (None, 4)            516         leaky_re_lu_75[0][0]             
==================================================================================================
Total params: 1,199,492
Trainable params: 1,197,956
Non-trainable params: 1,536
__________________________________________________________________________________________________
__________________________________________________________________________________________________
Layer (type)                    Output Shape         Param #     Connected to                     
==================================================================================================
input_26 (InputLayer)           (None, 4, 4, 17)     0                                            
__________________________________________________________________________________________________
conv2d_126 (Conv2D)             (None, 4, 4, 128)    8832        input_26[0][0]                   
__________________________________________________________________________________________________
conv2d_127 (Conv2D)             (None, 4, 4, 128)    8832        input_26[0][0]                   
__________________________________________________________________________________________________
conv2d_128 (Conv2D)             (None, 4, 4, 128)    8832        input_26[0][0]                   
__________________________________________________________________________________________________
conv2d_129 (Conv2D)             (None, 4, 4, 128)    19712       input_26[0][0]                   
__________________________________________________________________________________________________
conv2d_130 (Conv2D)             (None, 4, 4, 128)    34944       input_26[0][0]                   
__________________________________________________________________________________________________
add_26 (Add)                    (None, 4, 4, 128)    0           conv2d_126[0][0]                 
                                                                 conv2d_127[0][0]                 
                                                                 conv2d_128[0][0]                 
                                                                 conv2d_129[0][0]                 
                                                                 conv2d_130[0][0]                 
__________________________________________________________________________________________________
batch_normalization_76 (BatchNo (None, 4, 4, 128)    512         add_26[0][0]                     
__________________________________________________________________________________________________
leaky_re_lu_76 (LeakyReLU)      (None, 4, 4, 128)    0           batch_normalization_76[0][0]     
__________________________________________________________________________________________________
flatten_26 (Flatten)            (None, 2048)         0           leaky_re_lu_76[0][0]             
__________________________________________________________________________________________________
dense_76 (Dense)                (None, 512)          1049088     flatten_26[0][0]                 
__________________________________________________________________________________________________
batch_normalization_77 (BatchNo (None, 512)          2048        dense_76[0][0]                   
__________________________________________________________________________________________________
leaky_re_lu_77 (LeakyReLU)      (None, 512)          0           batch_normalization_77[0][0]     
__________________________________________________________________________________________________
dense_77 (Dense)                (None, 128)          65664       leaky_re_lu_77[0][0]             
__________________________________________________________________________________________________
batch_normalization_78 (BatchNo (None, 128)          512         dense_77[0][0]                   
__________________________________________________________________________________________________
leaky_re_lu_78 (LeakyReLU)      (None, 128)          0           batch_normalization_78[0][0]     
__________________________________________________________________________________________________
dense_78 (Dense)                (None, 4)            516         leaky_re_lu_78[0][0]             
==================================================================================================
Total params: 1,199,492
Trainable params: 1,197,956
Non-trainable params: 1,536
__________________________________________________________________________________________________
__________________________________________________________________________________________________
Layer (type)                    Output Shape         Param #     Connected to                     
==================================================================================================
input_27 (InputLayer)           (None, 4, 4, 17)     0                                            
__________________________________________________________________________________________________
conv2d_131 (Conv2D)             (None, 4, 4, 128)    8832        input_27[0][0]                   
__________________________________________________________________________________________________
conv2d_132 (Conv2D)             (None, 4, 4, 128)    8832        input_27[0][0]                   
__________________________________________________________________________________________________
conv2d_133 (Conv2D)             (None, 4, 4, 128)    8832        input_27[0][0]                   
__________________________________________________________________________________________________
conv2d_134 (Conv2D)             (None, 4, 4, 128)    19712       input_27[0][0]                   
__________________________________________________________________________________________________
conv2d_135 (Conv2D)             (None, 4, 4, 128)    34944       input_27[0][0]                   
__________________________________________________________________________________________________
add_27 (Add)                    (None, 4, 4, 128)    0           conv2d_131[0][0]                 
                                                                 conv2d_132[0][0]                 
                                                                 conv2d_133[0][0]                 
                                                                 conv2d_134[0][0]                 
                                                                 conv2d_135[0][0]                 
__________________________________________________________________________________________________
batch_normalization_79 (BatchNo (None, 4, 4, 128)    512         add_27[0][0]                     
__________________________________________________________________________________________________
leaky_re_lu_79 (LeakyReLU)      (None, 4, 4, 128)    0           batch_normalization_79[0][0]     
__________________________________________________________________________________________________
flatten_27 (Flatten)            (None, 2048)         0           leaky_re_lu_79[0][0]             
__________________________________________________________________________________________________
dense_79 (Dense)                (None, 512)          1049088     flatten_27[0][0]                 
__________________________________________________________________________________________________
batch_normalization_80 (BatchNo (None, 512)          2048        dense_79[0][0]                   
__________________________________________________________________________________________________
leaky_re_lu_80 (LeakyReLU)      (None, 512)          0           batch_normalization_80[0][0]     
__________________________________________________________________________________________________
dense_80 (Dense)                (None, 128)          65664       leaky_re_lu_80[0][0]             
__________________________________________________________________________________________________
batch_normalization_81 (BatchNo (None, 128)          512         dense_80[0][0]                   
__________________________________________________________________________________________________
leaky_re_lu_81 (LeakyReLU)      (None, 128)          0           batch_normalization_81[0][0]     
__________________________________________________________________________________________________
dense_81 (Dense)                (None, 4)            516         leaky_re_lu_81[0][0]             
==================================================================================================
Total params: 1,199,492
Trainable params: 1,197,956
Non-trainable params: 1,536
__________________________________________________________________________________________________
__________________________________________________________________________________________________
Layer (type)                    Output Shape         Param #     Connected to                     
==================================================================================================
input_28 (InputLayer)           (None, 4, 4, 17)     0                                            
__________________________________________________________________________________________________
conv2d_136 (Conv2D)             (None, 4, 4, 128)    8832        input_28[0][0]                   
__________________________________________________________________________________________________
conv2d_137 (Conv2D)             (None, 4, 4, 128)    8832        input_28[0][0]                   
__________________________________________________________________________________________________
conv2d_138 (Conv2D)             (None, 4, 4, 128)    8832        input_28[0][0]                   
__________________________________________________________________________________________________
conv2d_139 (Conv2D)             (None, 4, 4, 128)    19712       input_28[0][0]                   
__________________________________________________________________________________________________
conv2d_140 (Conv2D)             (None, 4, 4, 128)    34944       input_28[0][0]                   
__________________________________________________________________________________________________
add_28 (Add)                    (None, 4, 4, 128)    0           conv2d_136[0][0]                 
                                                                 conv2d_137[0][0]                 
                                                                 conv2d_138[0][0]                 
                                                                 conv2d_139[0][0]                 
                                                                 conv2d_140[0][0]                 
__________________________________________________________________________________________________
batch_normalization_82 (BatchNo (None, 4, 4, 128)    512         add_28[0][0]                     
__________________________________________________________________________________________________
leaky_re_lu_82 (LeakyReLU)      (None, 4, 4, 128)    0           batch_normalization_82[0][0]     
__________________________________________________________________________________________________
flatten_28 (Flatten)            (None, 2048)         0           leaky_re_lu_82[0][0]             
__________________________________________________________________________________________________
dense_82 (Dense)                (None, 512)          1049088     flatten_28[0][0]                 
__________________________________________________________________________________________________
batch_normalization_83 (BatchNo (None, 512)          2048        dense_82[0][0]                   
__________________________________________________________________________________________________
leaky_re_lu_83 (LeakyReLU)      (None, 512)          0           batch_normalization_83[0][0]     
__________________________________________________________________________________________________
dense_83 (Dense)                (None, 128)          65664       leaky_re_lu_83[0][0]             
__________________________________________________________________________________________________
batch_normalization_84 (BatchNo (None, 128)          512         dense_83[0][0]                   
__________________________________________________________________________________________________
leaky_re_lu_84 (LeakyReLU)      (None, 128)          0           batch_normalization_84[0][0]     
__________________________________________________________________________________________________
dense_84 (Dense)                (None, 4)            516         leaky_re_lu_84[0][0]             
==================================================================================================
Total params: 1,199,492
Trainable params: 1,197,956
Non-trainable params: 1,536
__________________________________________________________________________________________________
__________________________________________________________________________________________________
Layer (type)                    Output Shape         Param #     Connected to                     
==================================================================================================
input_1 (InputLayer)            (None, 4, 4, 17)     0                                            
__________________________________________________________________________________________________
conv2d_1 (Conv2D)               (None, 4, 4, 128)    8832        input_1[0][0]                    
__________________________________________________________________________________________________
conv2d_2 (Conv2D)               (None, 4, 4, 128)    8832        input_1[0][0]                    
__________________________________________________________________________________________________
conv2d_3 (Conv2D)               (None, 4, 4, 128)    8832        input_1[0][0]                    
__________________________________________________________________________________________________
conv2d_4 (Conv2D)               (None, 4, 4, 128)    19712       input_1[0][0]                    
__________________________________________________________________________________________________
conv2d_5 (Conv2D)               (None, 4, 4, 128)    34944       input_1[0][0]                    
__________________________________________________________________________________________________
add_1 (Add)                     (None, 4, 4, 128)    0           conv2d_1[0][0]                   
                                                                 conv2d_2[0][0]                   
                                                                 conv2d_3[0][0]                   
                                                                 conv2d_4[0][0]                   
                                                                 conv2d_5[0][0]                   
__________________________________________________________________________________________________
batch_normalization_1 (BatchNor (None, 4, 4, 128)    512         add_1[0][0]                      
__________________________________________________________________________________________________
leaky_re_lu_1 (LeakyReLU)       (None, 4, 4, 128)    0           batch_normalization_1[0][0]      
__________________________________________________________________________________________________
flatten_1 (Flatten)             (None, 2048)         0           leaky_re_lu_1[0][0]              
__________________________________________________________________________________________________
dense_1 (Dense)                 (None, 512)          1049088     flatten_1[0][0]                  
__________________________________________________________________________________________________
batch_normalization_2 (BatchNor (None, 512)          2048        dense_1[0][0]                    
__________________________________________________________________________________________________
leaky_re_lu_2 (LeakyReLU)       (None, 512)          0           batch_normalization_2[0][0]      
__________________________________________________________________________________________________
dense_2 (Dense)                 (None, 128)          65664       leaky_re_lu_2[0][0]              
__________________________________________________________________________________________________
batch_normalization_3 (BatchNor (None, 128)          512         dense_2[0][0]                    
__________________________________________________________________________________________________
leaky_re_lu_3 (LeakyReLU)       (None, 128)          0           batch_normalization_3[0][0]      
__________________________________________________________________________________________________
dense_3 (Dense)                 (None, 4)            516         leaky_re_lu_3[0][0]              
==================================================================================================
Total params: 1,199,492
Trainable params: 1,197,956
Non-trainable params: 1,536
__________________________________________________________________________________________________
__________________________________________________________________________________________________
Layer (type)                    Output Shape         Param #     Connected to                     
==================================================================================================
input_2 (InputLayer)            (None, 4, 4, 17)     0                                            
__________________________________________________________________________________________________
conv2d_6 (Conv2D)               (None, 4, 4, 128)    8832        input_2[0][0]                    
__________________________________________________________________________________________________
conv2d_7 (Conv2D)               (None, 4, 4, 128)    8832        input_2[0][0]                    
__________________________________________________________________________________________________
conv2d_8 (Conv2D)               (None, 4, 4, 128)    8832        input_2[0][0]                    
__________________________________________________________________________________________________
conv2d_9 (Conv2D)               (None, 4, 4, 128)    19712       input_2[0][0]                    
__________________________________________________________________________________________________
conv2d_10 (Conv2D)              (None, 4, 4, 128)    34944       input_2[0][0]                    
__________________________________________________________________________________________________
add_2 (Add)                     (None, 4, 4, 128)    0           conv2d_6[0][0]                   
                                                                 conv2d_7[0][0]                   
                                                                 conv2d_8[0][0]                   
                                                                 conv2d_9[0][0]                   
                                                                 conv2d_10[0][0]                  
__________________________________________________________________________________________________
batch_normalization_4 (BatchNor (None, 4, 4, 128)    512         add_2[0][0]                      
__________________________________________________________________________________________________
leaky_re_lu_4 (LeakyReLU)       (None, 4, 4, 128)    0           batch_normalization_4[0][0]      
__________________________________________________________________________________________________
flatten_2 (Flatten)             (None, 2048)         0           leaky_re_lu_4[0][0]              
__________________________________________________________________________________________________
dense_4 (Dense)                 (None, 512)          1049088     flatten_2[0][0]                  
__________________________________________________________________________________________________
batch_normalization_5 (BatchNor (None, 512)          2048        dense_4[0][0]                    
__________________________________________________________________________________________________
leaky_re_lu_5 (LeakyReLU)       (None, 512)          0           batch_normalization_5[0][0]      
__________________________________________________________________________________________________
dense_5 (Dense)                 (None, 128)          65664       leaky_re_lu_5[0][0]              
__________________________________________________________________________________________________
batch_normalization_6 (BatchNor (None, 128)          512         dense_5[0][0]                    
__________________________________________________________________________________________________
leaky_re_lu_6 (LeakyReLU)       (None, 128)          0           batch_normalization_6[0][0]      
__________________________________________________________________________________________________
dense_6 (Dense)                 (None, 4)            516         leaky_re_lu_6[0][0]              
==================================================================================================
Total params: 1,199,492
Trainable params: 1,197,956
Non-trainable params: 1,536
__________________________________________________________________________________________________
__________________________________________________________________________________________________
Layer (type)                    Output Shape         Param #     Connected to                     
==================================================================================================
input_3 (InputLayer)            (None, 4, 4, 17)     0                                            
__________________________________________________________________________________________________
conv2d_11 (Conv2D)              (None, 4, 4, 128)    8832        input_3[0][0]                    
__________________________________________________________________________________________________
conv2d_12 (Conv2D)              (None, 4, 4, 128)    8832        input_3[0][0]                    
__________________________________________________________________________________________________
conv2d_13 (Conv2D)              (None, 4, 4, 128)    8832        input_3[0][0]                    
__________________________________________________________________________________________________
conv2d_14 (Conv2D)              (None, 4, 4, 128)    19712       input_3[0][0]                    
__________________________________________________________________________________________________
conv2d_15 (Conv2D)              (None, 4, 4, 128)    34944       input_3[0][0]                    
__________________________________________________________________________________________________
add_3 (Add)                     (None, 4, 4, 128)    0           conv2d_11[0][0]                  
                                                                 conv2d_12[0][0]                  
                                                                 conv2d_13[0][0]                  
                                                                 conv2d_14[0][0]                  
                                                                 conv2d_15[0][0]                  
__________________________________________________________________________________________________
batch_normalization_7 (BatchNor (None, 4, 4, 128)    512         add_3[0][0]                      
__________________________________________________________________________________________________
leaky_re_lu_7 (LeakyReLU)       (None, 4, 4, 128)    0           batch_normalization_7[0][0]      
__________________________________________________________________________________________________
flatten_3 (Flatten)             (None, 2048)         0           leaky_re_lu_7[0][0]              
__________________________________________________________________________________________________
dense_7 (Dense)                 (None, 512)          1049088     flatten_3[0][0]                  
__________________________________________________________________________________________________
batch_normalization_8 (BatchNor (None, 512)          2048        dense_7[0][0]                    
__________________________________________________________________________________________________
leaky_re_lu_8 (LeakyReLU)       (None, 512)          0           batch_normalization_8[0][0]      
__________________________________________________________________________________________________
dense_8 (Dense)                 (None, 128)          65664       leaky_re_lu_8[0][0]              
__________________________________________________________________________________________________
batch_normalization_9 (BatchNor (None, 128)          512         dense_8[0][0]                    
__________________________________________________________________________________________________
leaky_re_lu_9 (LeakyReLU)       (None, 128)          0           batch_normalization_9[0][0]      
__________________________________________________________________________________________________
dense_9 (Dense)                 (None, 4)            516         leaky_re_lu_9[0][0]              
==================================================================================================
Total params: 1,199,492
Trainable params: 1,197,956
Non-trainable params: 1,536
__________________________________________________________________________________________________
__________________________________________________________________________________________________
Layer (type)                    Output Shape         Param #     Connected to                     
==================================================================================================
input_4 (InputLayer)            (None, 4, 4, 17)     0                                            
__________________________________________________________________________________________________
conv2d_16 (Conv2D)              (None, 4, 4, 128)    8832        input_4[0][0]                    
__________________________________________________________________________________________________
conv2d_17 (Conv2D)              (None, 4, 4, 128)    8832        input_4[0][0]                    
__________________________________________________________________________________________________
conv2d_18 (Conv2D)              (None, 4, 4, 128)    8832        input_4[0][0]                    
__________________________________________________________________________________________________
conv2d_19 (Conv2D)              (None, 4, 4, 128)    19712       input_4[0][0]                    
__________________________________________________________________________________________________
conv2d_20 (Conv2D)              (None, 4, 4, 128)    34944       input_4[0][0]                    
__________________________________________________________________________________________________
add_4 (Add)                     (None, 4, 4, 128)    0           conv2d_16[0][0]                  
                                                                 conv2d_17[0][0]                  
                                                                 conv2d_18[0][0]                  
                                                                 conv2d_19[0][0]                  
                                                                 conv2d_20[0][0]                  
__________________________________________________________________________________________________
batch_normalization_10 (BatchNo (None, 4, 4, 128)    512         add_4[0][0]                      
__________________________________________________________________________________________________
leaky_re_lu_10 (LeakyReLU)      (None, 4, 4, 128)    0           batch_normalization_10[0][0]     
__________________________________________________________________________________________________
flatten_4 (Flatten)             (None, 2048)         0           leaky_re_lu_10[0][0]             
__________________________________________________________________________________________________
dense_10 (Dense)                (None, 512)          1049088     flatten_4[0][0]                  
__________________________________________________________________________________________________
batch_normalization_11 (BatchNo (None, 512)          2048        dense_10[0][0]                   
__________________________________________________________________________________________________
leaky_re_lu_11 (LeakyReLU)      (None, 512)          0           batch_normalization_11[0][0]     
__________________________________________________________________________________________________
dense_11 (Dense)                (None, 128)          65664       leaky_re_lu_11[0][0]             
__________________________________________________________________________________________________
batch_normalization_12 (BatchNo (None, 128)          512         dense_11[0][0]                   
__________________________________________________________________________________________________
leaky_re_lu_12 (LeakyReLU)      (None, 128)          0           batch_normalization_12[0][0]     
__________________________________________________________________________________________________
dense_12 (Dense)                (None, 4)            516         leaky_re_lu_12[0][0]             
==================================================================================================
Total params: 1,199,492
Trainable params: 1,197,956
Non-trainable params: 1,536
__________________________________________________________________________________________________
Iter: 1
======Direction: left======
Iter: 2
======Direction: right======
…
